…
=== Final Validation Metrics ===
Accuracy:  0.8072
Recall:    0.6783
F1 Score:  0.6745
Precision: 0.6784
AUC-ROC:   0.8303
============================================================================================================================================
Layer (type:depth-idx)                   Input Shape               Output Shape              Param #                   Trainable
============================================================================================================================================
KGMultiModalTransformer                  [32, 71]                  [32, 3]                   --                        True
É¤Sequential: 1-1                        [32, 2]                   [32, 128]                 --                        True
©    Á¤Linear: 2-1                       [32, 2]                   [32, 16]                  48                        True
©    Á¤BatchNorm1d: 2-2                  [32, 16]                  [32, 16]                  32                        True
©    Á¤ReLU: 2-3                         [32, 16]                  [32, 16]                  --                        --
©    Á¤Dropout: 2-4                      [32, 16]                  [32, 16]                  --                        --
©    Á¤Linear: 2-5                       [32, 16]                  [32, 128]                 2,176                     True
©    Á¤BatchNorm1d: 2-6                  [32, 128]                 [32, 128]                 256                       True
©    Á¤ReLU: 2-7                         [32, 128]                 [32, 128]                 --                        --
É¤Sequential: 1-2                        [32, 64]                  [32, 128]                 --                        True
©    Á¤Linear: 2-8                       [32, 64]                  [32, 32]                  2,080                     True
©    Á¤BatchNorm1d: 2-9                  [32, 32]                  [32, 32]                  64                        True
©    Á¤ReLU: 2-10                        [32, 32]                  [32, 32]                  --                        --
©    Á¤Dropout: 2-11                     [32, 32]                  [32, 32]                  --                        --
©    Á¤Linear: 2-12                      [32, 32]                  [32, 128]                 4,224                     True
©    Á¤BatchNorm1d: 2-13                 [32, 128]                 [32, 128]                 256                       True
©    Á¤ReLU: 2-14                        [32, 128]                 [32, 128]                 --                        --
É¤Sequential: 1-3                        [32, 5]                   [32, 128]                 --                        True
©    Á¤Linear: 2-15                      [32, 5]                   [32, 32]                  192                       True
©    Á¤BatchNorm1d: 2-16                 [32, 32]                  [32, 32]                  64                        True
©    Á¤ReLU: 2-17                        [32, 32]                  [32, 32]                  --                        --
©    Á¤Dropout: 2-18                     [32, 32]                  [32, 32]                  --                        --
©    Á¤Linear: 2-19                      [32, 32]                  [32, 16]                  528                       True
©    Á¤BatchNorm1d: 2-20                 [32, 16]                  [32, 16]                  32                        True
©    Á¤ReLU: 2-21                        [32, 16]                  [32, 16]                  --                        --
©    Á¤Dropout: 2-22                     [32, 16]                  [32, 16]                  --                        --
©    Á¤Linear: 2-23                      [32, 16]                  [32, 128]                 2,176                     True
©    Á¤BatchNorm1d: 2-24                 [32, 128]                 [32, 128]                 256                       True
©    Á¤ReLU: 2-25                        [32, 128]                 [32, 128]                 --                        --
É¤Sequential: 1-4                        [32, 16, 128]             [32, 16, 128]             --                        True
©    Á¤Linear: 2-26                      [32, 16, 128]             [32, 16, 64]              8,256                     True
©    Á¤ReLU: 2-27                        [32, 16, 64]              [32, 16, 64]              --                        --
©    Á¤Dropout: 2-28                     [32, 16, 64]              [32, 16, 64]              --                        --
©    Á¤Linear: 2-29                      [32, 16, 64]              [32, 16, 128]             8,320                     True
É¤MultiheadAttention: 1-5                --                        [32, 1, 128]              66,048                    True
É¤MultiheadAttention: 1-6                --                        [32, 1, 128]              66,048                    True
É¤MultiheadAttention: 1-7                --                        [32, 1, 128]              66,048                    True
É¤LayerNorm: 1-8                         [32, 1, 128]              [32, 1, 128]              256                       True
É¤LayerNorm: 1-9                         [32, 1, 128]              [32, 1, 128]              256                       True
É¤LayerNorm: 1-10                        [32, 1, 128]              [32, 1, 128]              256                       True
É¤Linear: 1-11                           [32, 1, 128]              [32, 1, 128]              16,512                    True
É¤Linear: 1-12                           [32, 1, 128]              [32, 1, 128]              16,512                    True
É¤Linear: 1-13                           [32, 1, 128]              [32, 1, 128]              16,512                    True
É¤Linear: 1-14                           [32, 1, 128]              [32, 1, 128]              16,512                    True
É¤Linear: 1-15                           [32, 1, 128]              [32, 1, 128]              16,512                    True
É¤Linear: 1-16                           [32, 1, 128]              [32, 1, 128]              16,512                    True
É¤MultiheadAttention: 1-17               --                        [32, 1, 128]              66,048                    True
É¤MultiheadAttention: 1-18               --                        [32, 1, 128]              (recursive)               True
É¤LayerNorm: 1-19                        [32, 1, 128]              [32, 1, 128]              256                       True
É¤LayerNorm: 1-20                        [32, 1, 128]              [32, 1, 128]              256                       True
É¤Sequential: 1-21                       [32, 256]                 [32, 128]                 --                        True
©    Á¤Linear: 2-30                      [32, 256]                 [32, 128]                 32,896                    True
©    Á¤ReLU: 2-31                        [32, 128]                 [32, 128]                 --                        --
©    Á¤Dropout: 2-32                     [32, 128]                 [32, 128]                 --                        --
É¤Linear: 1-22                           [32, 1, 128]              [32, 1, 128]              16,512                    True
É¤MultiheadAttention: 1-23               --                        [32, 1, 128]              (recursive)               True
É¤LayerNorm: 1-24                        [32, 1, 128]              [32, 1, 128]              256                       True
É¤Sequential: 1-25                       [32, 256]                 [32, 3]                   --                        True
©    Á¤Linear: 2-33                      [32, 256]                 [32, 64]                  16,448                    True
©    Á¤BatchNorm1d: 2-34                 [32, 64]                  [32, 64]                  128                       True
©    Á¤ReLU: 2-35                        [32, 64]                  [32, 64]                  --                        --
©    Á¤Dropout: 2-36                     [32, 64]                  [32, 64]                  --                        --
©    Á¤Linear: 2-37                      [32, 64]                  [32, 3]                   195                       True
============================================================================================================================================
Total params: 459,939
Trainable params: 459,939
Non-trainable params: 0
Total mult-adds (Units.MEGABYTES): 6.26
============================================================================================================================================
…
